…
    # showing how we can save our trained model
    model.save(path+'model')
    
    # showing how we can load our trained model
    model = tf.keras.models.load_model(path+'model')

    # test how well our model performs against data
    # that it has not seen before
    model.evaluate(x=x_test/255, y=y_test)

    # 假设你有一个包含图像路径的列表
   

if __name__ == "__main__":
  main()
  
'''
_________________________________________________________________
 Layer (type)                Output Shape              Param #
=================================================================
 conv2d (Conv2D)             (None, 99, 99, 32)        416

 max_pooling2d (MaxPooling2D  (None, 49, 49, 32)       0
 )

 conv2d_1 (Conv2D)           (None, 47, 47, 64)        18496

 max_pooling2d_1 (MaxPooling  (None, 23, 23, 64)       0
 2D)

 conv2d_2 (Conv2D)           (None, 21, 21, 128)       73856

 max_pooling2d_2 (MaxPooling  (None, 10, 10, 128)      0
 2D)

 dropout (Dropout)           (None, 10, 10, 128)       0

 flatten (Flatten)           (None, 12800)             0

 dense (Dense)               (None, 128)               1638528

 dropout_1 (Dropout)         (None, 128)               0

 dense_1 (Dense)             (None, 64)                8256

 dense_2 (Dense)             (None, 4)                 260

=================================================================
Total params: 1,739,812
Trainable params: 1,739,812
Non-trainable params: 0
_________________________________________________________________
None



Epoch 1/9
24/24 [==============================] - 2s 69ms/step - loss: 1.1670 - accuracy: 0.5208
Epoch 2/9
24/24 [==============================] - 2s 70ms/step - loss: 0.7136 - accuracy: 0.7667
…
